EXAM_DL/data/model0318/best_model-epoch100.pth (torch, 735212 bytes, 8 tensors)

weight f4 [200, 784]
0.0115548 0.023321785 -0.009955255 0.021354262 0.030573579 0.01529065 -0.0045745424 0.029605653
0.026063453 -0.025214016 0.020663785 0.0070948848 0.024011534 0.029942162 -0.029351108 0.028994223
-0.008062126 -0.010770015 0.008878897 0.018887276 0.025572937 -0.02135524 -2.2705992e-05 0.008084211
0.023273313 -0.033740595 0.0037917404 -0.0019350466 -0.011757622 0.035220485 -0.022767445 -0.0008039491
0.033880662 -0.022565227 -0.02266857 -0.012456817 -0.003602786 0.009389746 0.04186739 0.013690724
-0.019936569 -0.029152373 0.0035245176 0.01513788 0.00078946364 0.019827295 0.023044186 -0.017146904
0.01955779 -0.03484876 0.031751715 0.008615208 -0.03204519 0.02402304 0.009241725 0.03530432
-0.028348992 -0.030314839 -0.036066715 -0.02640498 0.003915327 -0.019712029 -0.038155403 0.018798001
0.0033863764 -0.0036831321 0.0025047373 0.010345179 0.008679418 -0.005621188 -0.0066436287 0.013478734
0.019529296 -0.0009179972 -0.029575776 -0.026318396 0.035497736 0.01398039 0.014764695 -0.016114099
-0.007060656 0.019507261 0.03171253 -0.026450548 -0.016839689 -0.03342618 0.025014102 -0.0048863394
-0.034060705 -0.021684792 -0.013998457 -0.0067164707 -0.02543316 0.008971594 0.027198864 0.015886014
-0.027797937 -0.0009331808 -0.02830466 0.005370162 -0.011441987 0.017803466 0.036594454 -0.015294298
0.022583103 0.009003131 -0.0036331348 -0.01012761 -0.023968078 0.027644936 -0.009455494 -0.0135646025
-0.005716056 0.014008886 -0.01936647 0.022135649 0.015427177 -0.023299212 0.01629829 -0.0010945225
0.009630249 0.006686488 0.013148261 0.0019104986 0.03589721 -0.010915463 0.0031658558 -0.010523932
-0.0141952485 0.03888306 0.0003665835 0.027759098 0.032745007 0.002228326 -0.0239272 -0.026968213
0.026823228 -0.024398867 -0.00270711 0.01071278 0.02888029 0.02964492 -0.029410074 0.03079176
0.010516382 0.017621202 -0.030020295 -0.022532692 0.0021315122 0.03063016 -0.011515387 0.019733336
0.014851185 -0.009025503 0.010188798 -0.017231183 0.008107524 0.015002964 0.023580944 0.025882015
0.022160213 -0.027883863 0.014023592 -0.017010331 0.013855918 -0.009982976 0.033057965 0.022404484
-0.012297815 -0.026452584 0.011236028 0.022440424 0.019645562 0.0053656725 -0.022197345 -0.00034375716
-0.012499841 0.025674373 0.037403964 0.023336863 -0.009742484 0.028022029 -0.021060068 0.031906
-0.005515903 0.033385795 -0.021904206 0.026352793 -0.009884136 0.015317194 -0.031906337 0.0006297121
-0.0055797524 0.030080609 -0.024150698 -0.026079977 0.012378816 -0.036932003 -0.027131103 -0.013067156
0.022603322 0.0050327214 -0.020300273 -0.027759494 -0.030331062 0.008537608 -0.011523854 0.017740129
0.0356015 -0.011411721 -0.0144325225 0.024059046 0.015368561 -0.01829641 0.0055550113 0.004648185
0.023616096 0.03156159 -0.0069610197 -0.03615572 0.023337215 0.03129341 0.02352992 0.026655946
-0.018303115 -0.024757262 -0.00376605 -0.0023895921 0.029041175 -0.0006756937 -0.005566227 -0.036544915
-0.039221793 0.0023534591 0.0065587433 -0.011141374 0.027597373 -0.021625854 0.0084199505 0.03238348
0.0077976547 0.024878928 -0.029868081 0.023783008 0.014723949 0.033675272 -0.018461362 0.0034716625
0.0070626335 -0.009570678 -0.00019405245 -0.029602557 0.0069885887 -0.02928951 0.029724104 0.017652402
00000000: 5850 3d3c 540d bf3c 5e1b 23bc 22ef ae3c
00000010: 7175 fa3c a285 7a3c 0be6 95bb 8e87 f23c
00000020: 0683 d53c a08d cebc 1947 a93c 357c e83b
00000030: d6b3 c43c 4449 f53c bc71 f0bc 4b85 ed3c
00000040: 0217 04bc b874 30bc cb78 113c 7db9 9a3c
00000050: 567e d13c 2ff1 aebc bf78 beb7 a373 043c
00000060: ada7 be3c 9433 0abd d97e 783b 64a1 fdba
00000070: 0aa3 40bc 5b43 103d cb82 babc 1cc0 52ba
00000080: 73c6 0a3d b6da b8bc 70b3 b9bc ad17 4cbc
00000090: b81c 6cbb 73d7 193c 247d 2b3d 0f4f 603c
000000a0: 0452 a3bc f5d0 eebc 98fb 663b df04 783c
000000b0: 02f4 4e3a da6c a23c 29c7 bc3c aa77 8cbc
000000c0: a937 a03c 93bd 0ebd 160e 023d cd26 0d3c
000000d0: d141 03bd f7cb c43c 9b6a 173c 439b 103d
000000e0: 253c e8bc d356 f8bc b1ba 13bd 424f d8bc
000000f0: 254c 803b 1f7b a1bc d748 1cbd 44fe 993c
00000100: f8ed 5d3b b460 71bb 8526 243b d37e 293c
00000110: 1e34 0e3c f131 b8bb ccb2 d9bb e8d5 5c3c
00000120: e7fb 9f3c c0a5 70ba e648 f2bc ad99 d7bc
00000130: 1366 113d 010e 653c 9fe7 713c b701 84bc
00000140: 135d e7bb b1cd 9f3c ffe4 013d d2ae d8bc
00000150: 63f3 89bc e4e9 08bd 60ea cc3c 961d a0bb
00000160: 3d83 0bbd 4ea4 b1bc c959 65bc d715 dcbb
00000170: 3459 d0bc 98fd 123c 27d0 de3c 6323 823c
00000180: 80b8 e3bc b4a0 74ba 2ddf e7bc 2ff8 af3b
00000190: 2c77 3bbc 93d8 913c 11e4 153d ef94 7abc
000001a0: 3300 b93c de81 133c e319 6ebb 46ee 25bc
000001b0: b458 c4bc a277 e23c 37eb 1abc 113e 5ebc
000001c0: c14d bbbb 8785 653c 6ea6 9ebc d255 b53c
000001d0: 45c2 7c3c fddd bebc fe83 853c 1576 8fba
000001e0: 31c8 1d3c 541a db3b ce6b 573c b269 fa3a
000001f0: f408 133d c5d6 32bc 3f7a 4f3b 926c 2cbc
00000200: 3093 68bc d843 1f3d 0132 c039 0c67 e33c
00000210: a11f 063d 1b09 123b fa02 c4bc 71ec dcbc
00000220: 63bc db3c 22e0 c7bc c569 31bb a884 2f3c
00000230: 5c96 ec3c e7d9 f23c 65ed f0bc 003f fc3c
00000240: e74c 2c3c 575a 903c 1fed f5bc 7b96 b8bc
00000250: d7b0 0b3b 1aec fa3c 09ab 3cbc cea7 a13c
00000260: 6252 733c b4df 13bc ebee 263c 6928 8dbc
00000270: 6cd5 043c fece 753c d32c c13c 8506 d43c
00000280: 5689 b53c b36c e4bc 35c3 653c 4059 8bbc
00000290: ef03 633c a38f 23bc ca67 073d 9c89 b73c
000002a0: c67c 49bc 17b3 d8bc 5117 383c fbd4 b73c
000002b0: bbef a03c 86d2 af3b 35d7 b5bc 4e3a b4b9
000002c0: 22cc 4cbc 1053 d23c e634 193d f32c bf3c
000002d0: f19e 1fbc 748e e53c 2a86 acbc deaf 023d
000002e0: bfbe b4bb 8bbf 083d 7370 b3bc d0e1 d73c
000002f0: 12f1 21bc f8f4 7a3c 38b0 02bd 4413 253a
00000300: 5bd6 b6bb 9c6b f63c afd7 c5bc ada5 d5bc
00000310: 84d0 4a3c 0346 17bd 0c42 debc a017 56bc
00000320: 9a2a b93c 87e9 a43b c24c a6bc e167 e3bc
00000330: d978 f8bc 53e1 0b3c 8cce 3cbc bf53 913c
00000340: e1d2 113d 3af8 3abc 6376 6cbc 7a17 c53c
00000350: 6bcc 7b3c 5ae2 95bc d006 b63b cd4f 983b
00000360: 8b76 c13c ba46 013d 4419 e4bb 0518 14bd
00000370: b02d bf3c 852d 003d d2c1 c03c 925d da3c
00000380: 6af0 95bc becf cabc d6cf 76bb b49a 1cbb
00000390: c2e7 ed3c 0921 31ba e564 b6bb 1fb0 15bd
000003a0: 08a7 20bd 7e3c 1a3b baea d63b 4f8a 36bc
000003b0: e313 e23c b428 b1bc d5f3 093c 8aa4 043d
000003c0: 7883 ff3b e5ce cb3c e8ad f4bc 95d4 c23c
000003d0: b83c 713c 15ef 093d 483c 97bc d584 633b
000003e0: aa6d e73b 55ce 1cbc 8f7a 4bb9 1081 f2bc
000003f0: 8800 e53b 8ef0 efbc f77f f33c c59b 903c

bias f4 [200]
-0.0088777095 0.039137624 0.020255694 -0.0045815283 0.025857987 -0.0041062073 -0.03210542 0.029342227
0.077480316 0.047661 -0.003672628 0.01218338 0.03723068 -0.0103444 0.027715461 0.029062627
0.082412355 -0.009749002 0.0029105546 0.06365836 0.02789116 -0.0033752478 -0.00878526 -0.0043240283
-0.038931374 0.06823624 0.035751566 0.027644426 0.0042194193 -0.009482478 0.060665216 0.04154458
0.008820173 -0.0016318621 -0.010433514 0.050882798 -0.01873503 0.027486762 0.030652992 0.06998734
0.021298286 -0.008972721 0.03129622 -0.022170696 0.019670181 0.017867351 0.06583003 0.013135703
-0.039999284 -0.0013224606 0.06360192 0.007113229 0.0267144 0.005241861 -8.5255044e-05 0.052753713
0.034001946 0.04083641 0.05262459 0.02632885 0.047996942 0.11454304 0.01970933 -0.0027329605
0.013035068 -0.0031108158 -0.025484351 0.02156004 0.001232753 0.009539928 0.010161693 -0.01904229
-0.0029746199 0.06253541 0.06896274 0.038937297 -0.030329425 0.055212576 0.037942372 0.067554854
0.030754684 0.07492633 0.05282838 0.08160906 0.011000917 0.007030294 0.014196308 -0.0025472138
0.07285502 0.0045528826 0.06253699 0.07421769 -0.009584211 -0.09103749 0.03679356 -0.03856238
-0.0047310707 -0.02161234 -0.04093734 -0.043477107 -0.03926934 -0.013826907 0.032999285 0.041789442
0.07109026 -0.0010593344 0.04429386 -0.040415894 0.017877258 0.018074712 0.027828943 -0.0050932714
0.028855512 0.020257864 -0.011403486 0.025969261 0.011542258 -0.018962149 0.044872716 0.0013699346
-0.028586578 0.0081791505 0.03851958 0.039116897 0.04696452 -0.004531558 -0.0124587305 -0.012654707
-0.028122561 0.053757768 -0.015881568 0.02980934 0.006468529 0.022779528 -0.026166873 0.000610428
0.027953042 -0.030802306 -0.012794166 -0.062569395 0.11845484 0.028726207 0.040097382 0.030972226
-0.011569649 0.034993276 -0.021814268 0.068789616 0.03303873 -0.04874573 0.06413432 -7.396165e-05
0.0279274 0.05903911 -0.03079421 -0.030150063 4.9840706e-05 -0.02167891 -0.057759684 -0.017240899
-0.022688784 -0.017750809 0.0316224 0.0119537935 -0.034930035 -0.023283534 0.07394431 -0.006293767
0.013181013 0.012080252 0.07630149 -0.0371556 0.042643424 0.05411514 0.047025744 0.0135903675
-0.0025658049 0.009734731 -0.07979694 -0.016681911 -0.018223498 -0.06499882 0.008952409 -0.021527922
0.035016 -0.046244685 0.019203333 -0.0194759 0.024097212 -0.036026567 0.064636715 0.00030551085
0.028963692 0.019550104 -0.04053233 0.051650044 0.016852202 0.07618464 0.017781332 -0.020006102
00000000: d073 11bc c64e 203d 45ef a53c a520 96bb
00000010: 21d4 d33c 5d8d 86bb f980 03bd 1c5f f03c
00000020: 00ae 9e3d 2e38 433d 79b0 70bb cd9c 473c
00000030: 337f 183d 8f7b 29bc 890b e33c bf14 ee3c
00000040: cfc7 a83d 47ba 1fbc 01bf 3e3b 505f 823d
00000050: 017c e43c 4333 5dbb 0df0 0fbc 94b0 8dbb
00000060: 8176 1fbd 71bf 8b3d 3c70 123d 9076 e23c
00000070: 0e43 8a3b 655c 1bbc 177c 783d a62a 2a3d
00000080: 7d82 103c 35e4 d5ba 54f1 2abc 7b6a 503d
00000090: 357a 99bc eb2b e13c fc1b fb3c 8655 8f3d
000000a0: be79 ae3c 5202 13bc 7730 003d 529f b5bc
000000b0: 5c23 a13c 8d5e 923c e5d1 863d 2237 573c
000000c0: 4ad6 23bd 6a56 adba b941 823d 1716 e93b
000000d0: 28d8 da3c ebc3 ab3b f4ca b2b8 4714 583d
000000e0: a045 0b3d 1444 273d e28c 573d 9aaf d73c
000000f0: 7198 443d 8b95 ea3d 7675 a13c 781b 33bb
00000100: 0a91 553c d4de 4bbb 8fc4 d0bc ae9e b03c
00000110: 5494 a13a 5c4d 1c3c 3b7d 263c 94fe 9bbc
00000120: d7f1 42bb 9112 803d 563c 8d3d b77c 1f3d
00000130: 6a75 f8bc 9526 623d 7669 1b3d 335a 8a3d
00000140: 3ff1 fb3c fa72 993d 9262 583d a722 a73d
00000150: 313d 343c 615e e63b a297 683c 28ef 26bb
00000160: 0335 953d 5930 953b 6513 803d 72ff 973d
00000170: 1807 1dbc dd71 babd d8b4 163d 96f3 1dbd
00000180: 1907 9bbb 5d0c b1bc eaad 27bd 0d15 32bd
00000190: e3d8 20bd 408a 62bc 422a 073d 682b 2b3d
000001a0: c597 913d 5dd9 8aba 7b6d 353d 238b 25bd
000001b0: 5473 923c 6b11 943c 86f9 e33c 75e5 a6bb
000001c0: 6562 ec3c d2f3 a53c b0d5 3abc 7dbd d43c
000001d0: bd1b 3d3c 8256 9bbc 74cc 373d 618f b33a
000001e0: 662e eabc d801 063c b5c6 1d3d 0a39 203d
000001f0: de5d 403d 777d 94bb b41f 4cbc b055 4fbc
00000200: 4961 e6bc 1b31 5c3d 101a 82bc b832 f43c
00000210: f4f5 d33b 229c ba3c e95b d6bc 2105 203a
00000220: c7fd e43c 1e55 fcbc 9f9e 51bc 6224 80bd
00000230: 7398 f23d 3953 eb3c 273d 243d 77b9 fd3c
00000240: a08e 3dbc 1c55 0f3d d6b3 b2bc 92e1 8c3d
00000250: 9f53 073d 9aa9 47bd db58 833d dc1b 9bb8
00000260: 01c8 e43c fed2 713d 2444 fcbc 44fd f6bc
00000270: 0d0c 5138 f897 b1bc 6b95 6cbd c93c 8dbc
00000280: d4dd b9bc 256a 91bc 7d86 013d d8d9 433c
00000290: cc12 0fbd 1cbd bebc 1d70 973d f23b cebb
000002a0: 2df5 573c 40ec 453c f543 9c3d 7830 18bd
000002b0: dfaa 2e3d d6a7 5d3d 119e 403d 22aa 5e3c
000002c0: 1027 28bb 6c7e 1f3c 946c a3bd 81a8 88bc
000002d0: 7249 95bc 1a1e 85bd 20ad 123c 535b b0bc
000002e0: f06c 0f3d 116b 3dbd 4f50 9d3c ec8b 9fbc
000002f0: 8467 c53c 9890 13bd 4160 843d f92c a039
00000300: 4445 ed3c 8a27 a03c 3a05 26bd ff8e 533d
00000310: a10d 8a3c b106 9c3d 28aa 913c d6e3 a3bc

weight f4 [100, 200]
-0.05316794 -0.05643941 -0.050142583 -0.06271743 0.09792034 -0.003166418 -0.039331954 0.07046902
0.03842371 0.10212726 0.016638173 0.0131392125 -0.030455437 -0.04506751 -0.036951333 0.033589184
0.043827865 -0.08848372 -0.025108906 0.20072721 0.03969454 -0.07272377 0.024246337 -0.0021283654
-0.06083886 0.013981792 -0.050450314 -0.0034082895 0.08493261 -0.04577801 0.01601028 0.053332243
0.029197855 -0.04317556 -0.03415794 0.16710924 -0.014083598 0.01973236 -0.056504037 0.16308145
0.044315312 0.027897142 0.025242776 -0.06848116 -0.03471349 -0.029406503 0.05912195 0.042785928
0.06908363 0.046512555 0.14340653 0.14573593 -0.026031645 -0.0037159491 -0.0038049917 0.015549723
-0.06497429 0.026805546 0.027408198 0.010801744 -0.102403656 -0.06011139 -0.0063985153 0.011166206
0.017836675 0.009176811 0.014723469 0.062157486 -0.06595172 -0.045271743 -0.04319741 0.0064249365
0.04323134 0.08525821 0.050523784 0.17039092 -0.06713685 0.097477265 0.12656832 -0.06311409
0.05406102 0.06372986 -0.008675402 0.027314063 0.009505418 -0.061416574 0.06436873 0.111591734
-0.042121463 -0.032628685 0.072782494 -0.04352821 -0.04285284 -0.040027358 0.034813143 -0.05466473
-0.019230973 -0.10467115 -0.1279612 -0.022329068 -0.054330725 -0.037963033 0.15748078 0.0019144594
0.00075404806 -0.0276403 -0.018304557 -0.028630944 -0.06709213 0.036352407 0.039902385 -0.047412205
-0.023390165 -0.085571386 -0.05198369 0.044393416 -0.040757235 0.02307831 0.0027025915 0.04431499
-0.06580081 -0.017690675 0.042900544 0.025690328 0.0527105 -0.019851245 0.047361054 0.08108992
-0.036332414 0.10346799 0.05749193 0.0066354517 0.032665048 -0.06623505 0.0647732 -0.065178305
0.04301399 0.04887334 -0.074417494 -0.07092455 0.08601664 -0.030885309 0.10923934 0.03673772
0.038268864 0.03347765 -0.076767325 0.05282951 0.04702712 0.030490035 -0.020041652 0.029925417
0.031864215 0.023016658 -0.019289125 0.096750915 0.049378965 0.005882949 0.0028456668 -0.07822845
-0.0011072346 0.015166342 0.044760887 0.053250182 -0.032927617 0.11409319 0.09231703 -0.09013274
-0.0097672185 0.049187053 0.06457536 0.056876317 0.068030454 0.07689133 0.08966097 0.011988506
-0.11609788 0.008487004 0.021560544 -0.054753706 0.0130919535 -0.11338603 0.09893813 -0.06257166
-0.031034034 -0.07354306 -0.051063426 -0.03499952 -0.039444618 -0.025482567 -0.029764444 -0.028119776
0.02943449 0.051410172 -0.04958901 0.021020446 -0.14597112 -0.028639495 -0.012213723 -0.008865643
0.07004832 0.06504804 0.05668674 0.00479093 -0.01625335 -0.032753527 -0.040186178 -0.05346617
-0.08010078 0.08396953 -0.004526964 -0.013782547 0.105309114 -0.07955734 -0.0860565 0.020927563
0.0715886 -0.032026645 0.025962424 0.0751261 -0.016651042 -0.026987586 -0.017302657 -0.04875283
-0.08206049 -0.04539653 0.013869308 0.077289805 0.002387906 -0.031928975 0.0016243417 -0.046185516
0.03124706 -0.04796677 -0.012437891 0.04941929 0.06750068 -0.044380065 -0.02898003 0.10533023
-0.05511309 0.024429709 -0.024012653 -0.052024465 -0.017514868 -0.021916429 -0.06396581 -0.08717453
0.13205992 0.009864578 -0.030966327 0.061913576 -0.0028380428 0.03737789 -0.053798825 0.049772184
00000000: a0c6 59bd 032d 67bd 4f62 4dbd ff71 80bd
00000010: 768a c83d ae83 4fbb 8b1a 21bd 1052 903d
00000020: 2e62 1d3d 1928 d13d c74c 883c da45 573c
00000030: ae7d f9bc b698 38bd 485a 17bd d094 093d
00000040: d984 333d f436 b5bd 31b1 cdbc 6f8b 4d3e
00000050: be96 223d 33f0 94bd 41a0 c63c 0c7c 0bbb
00000060: 2b32 79bd e313 653c fda4 4ebd 9c5d 5fbb
00000070: 26f1 ad3d b981 3bbd fe27 833c e972 5a3d
00000080: 5730 ef3c dbd8 30bd 32e9 0bbd af1e 2b3e
00000090: e4be 66bc c2a5 a13c c770 67bd d3fe 263e
000000a0: f983 353d 8c88 e43c f0c9 ce3c da3f 8cbd
000000b0: bc2f 0ebd e8e5 f0bc dc29 723d 4c40 2f3d
000000c0: b87b 8d3d f383 3e3d 29d9 123e cd3b 153e
000000d0: 5140 d5bc 4887 73bb 2b5d 79bb 44c4 7e3c
000000e0: 3e11 85bd 4e97 db3c 2887 e03c ccf9 303c
000000f0: 02b9 d1bd 5c37 76bd a3aa d1bb 76f2 363c
00000100: 381e 923c 565a 163c b43a 713c d998 7e3d
00000110: b211 87bd dd6e 39bd c4ef 30bd 4688 d23b
00000120: 5813 313d db9b ae3d 07f2 4e3d f57a 2e3e
00000130: 0b7f 89bd 29a2 c73d 209b 013e f641 81bd
00000140: 176f 5d3d cd84 823d 4623 0ebc bec1 df3c
00000150: 9dbc 1b3c f28f 7bbd c1d3 833d 358a e43d
00000160: 8e87 2cbd a8a5 05bd fd0e 953d a34a 32bd
00000170: 7686 2fbd baf3 23bd 3a98 0e3d 20e8 5fbd
00000180: 468a 9dbc d45d d6bd 4308 03be 73eb b6bc
00000190: e589 5ebd 207f 1bbd a442 213e 99ee fa3a
000001a0: 4fab 453a e96d e2bc 70f3 95bc 718b eabc
000001b0: 9967 89bd 43e6 143d af70 233d 4d33 42bd
000001c0: bb9c bfbc 0d40 afbd daec 54bd dfd5 353d
000001d0: 0ff1 26bd b90e bd3c f61d 313b a383 353d
000001e0: 93c2 86bd 09ec 90bc 7bb8 2f3d 8674 d23c
000001f0: f7e6 573d 149f a2bc aafd 413d 7912 a63d
00000200: 4cd1 14bd 07e7 d33d a87c 6b3d 346e d93b
00000210: c9cb 053d 3ea6 87bd d0a7 843d 347c 85bd
00000220: 702f 303d 692f 483d 3368 98bd e440 91bd
00000230: 7e29 b03d 3003 fdbc e0b8 df3d 4b7a 163d
00000240: d0bf 1c3d dc1f 093d 3038 9dbd c263 583d
00000250: 829f 403d 3dc6 f93c 642e a4bc 2626 f53c
00000260: 0d84 023d 6e8d bc3c 3a04 9ebc 5825 c63d
00000270: 9941 4a3d c1c5 c03b 5e7e 3a3b 3d36 a0bd
00000280: a120 91ba 407c 783c 3157 373d dd1c 5a3d
00000290: 1cdf 06bd b1a9 e93d b610 bd3d 8497 b8bd
000002a0: af06 20bc 5d78 493d 1640 843d 24f7 683d
000002b0: 8d53 8b3d 3479 9d3d 2ca0 b73d 706b 443c
000002c0: bac4 edbd 130d 0b3c bd9f b03c 6c45 60bd
000002d0: a27f 563c ef36 e8bd 13a0 ca3d 9225 80bd
000002e0: 163b febc be9d 96bd e227 51bd a85b 0fbd
000002f0: ae90 21bd d1c0 d0bc 90d4 f3bc 725b e6bc
00000300: 9920 f13c 7993 523d d91d 4bbd 1233 ac3c
00000310: 7479 15be 609d eabc 111c 48bc 3441 11bc
00000320: 7e75 8f3d e837 853d 5b30 683d 3cfd 9c3b
00000330: bf25 85bc 9028 06bd 439a 24bd 58ff 5abd
00000340: e10b a4bd 38f8 ab3d ed56 94bb 31d0 61bc
00000350: 4eac d73d f5ee a2bd 643e b0bd 4870 ab3c
00000360: 0b9d 923d 5f2e 03bd 26af d43c b6db 993d
00000370: c467 88bc 1215 ddbc 4dbe 8dbc 0cb1 47bd
00000380: 550f a8bd b6f1 39bd 183c 633c 1e4a 9e3d
00000390: 6a7e 1c3b f5c7 02bd dde7 d43a 062d 3dbd
000003a0: d6f9 ff3c ce78 44bd 4cc8 4bbc e26b 4a3d
000003b0: cc3d 8a3d dfc7 35bd 8767 edbc 60b7 d73d
000003c0: 43be 61bd d020 c83c 2fb6 c4bc 9b17 55bd
000003d0: 577b 8fbc 158a b3bc 8200 83bd 8f88 b2bd
000003e0: b73a 073e 0a9f 213c 18ad fdbc 1799 7d3d
000003f0: 75fe 39bb 8f19 193d 285c 5cbd ebdd 4b3d

bias f4 [100]
0.077877074 0.015752453 0.045967244 0.07376764 0.027164306 0.03629071 -0.021905866 0.057807438
-0.01894474 -0.048550203 0.035058416 0.05087733 -0.041992426 0.007922926 0.09970722 -0.057681423
0.07314248 -0.086539164 0.012923778 -0.044639148 -0.063403755 0.042112283 0.17263907 -0.0044087544
0.12267435 0.020346979 0.03014301 -0.042660613 0.072137095 -0.085028835 0.007012713 -0.026933214
0.06562544 0.061722957 0.048918437 -0.059871987 0.06761818 0.05852388 0.033954095 0.096495524
-0.14471033 0.0152292615 0.062165275 -0.06507067 0.045734797 -0.023062913 0.028278306 0.052400686
0.07687472 -0.031777933 0.061903335 0.02464838 0.036328472 -0.01418415 0.004886822 -0.11048384
0.007835225 -0.056465447 -0.074015915 0.013492918 -0.0005278583 0.062613845 0.23967646 -0.014152835
-0.015387689 -0.042232953 -0.037642863 -0.00783606 0.13315791 -0.03970317 -0.011805824 0.12326477
0.025100319 0.097772725 -0.03268664 -0.045632225 0.03278693 0.04242941 0.08449411 -0.00034900365
-0.050213233 0.04815974 -0.02270684 -0.155827 -0.04218813 0.015361789 -0.00019224103 0.016191099
0.067339495 0.042462826 0.08207273 -0.06217988 0.041492622 -0.015535004 0.07359984 0.04000324
-0.016895683 -0.053035367 -0.01779206 0.025989084
00000000: 047e 9f3d 4a0b 813c 2648 3c3d 7d13 973d
00000010: ae87 de3c 91a5 143d ee73 b3bc 7ec7 6c3d
00000020: 0032 9bbc 94dc 46bd 6a99 0f3d bf64 503d
00000030: 4000 2cbd 29cf 013c 4d33 cc3d 5b43 6cbd
00000040: b9cb 953d 723b b1bd 41be 533c 8ad7 36bd
00000050: d4d9 81bd ee7d 2c3d 4cc8 303e 5077 90bb
00000060: b13c fb3d b5ae a63c 79ee f63c e5bc 2ebd
00000070: 9dbc 933d 9923 aebd e6ca e53b 0ba3 dcbc
00000080: a166 863d 36d1 7c3d b35e 483d 543c 75bd
00000090: 667b 8a3d bcb6 6f3d 7313 0b3d 729f c53d
000000a0: f22e 14be 2784 793c 04a1 7e3d c543 85bd
000000b0: 6954 3b3d 6fee bcbc e8a7 e73c 1aa2 563d
000000c0: 7e70 9d3d 9429 02bd 5a8e 7d3d 66eb c93c
000000d0: 2acd 143d a364 68bc a221 a03b 5a45 e2bd
000000e0: 515f 003c 5048 67bd a895 97bd 6611 5d3c
000000f0: f95f 0aba b03b 803d bf6d 753e 4be1 67bc
00000100: a51c 7cbc 76fc 2cbd 672f 1abd d162 00bc
00000110: 8c5a 083e cb9f 22bd 376d 41bc 3d72 fc3d
00000120: 2f9f cd3c 113d c83d 6de2 05bd dbe8 3abd
00000130: 974b 063d 76ca 2d3d 3f0b ad3d 7afa b6b9
00000140: 64ac 4dbd 2643 453d b203 babc 1d91 1fbe
00000150: 76cd 2cbd 03b0 7b3c 4f94 49b9 32a3 843c
00000160: 4ae9 893d 80ed 2d3d bf15 a83d 54b0 7ebd
00000170: 2bf4 293d 8886 7ebc 83bb 963d 70da 233d
00000180: d168 8abc 9d3b 59bd a7c0 91bc 0fe7 d43c

weight f4 [50, 100]
-0.042353716 -0.04733348 -0.04398736 -0.079021454 0.09263373 -0.037757315 -0.027937159 0.051951714
-0.08540138 -0.029778682 -0.020638444 0.043745942 -0.010326706 -0.0639014 0.034098975 -0.08632338
-0.033466652 0.052856855 -0.0036371201 -0.0985655 -0.04554185 0.05865123 -0.09340451 -0.03767326
-0.026092589 -0.0955233 -0.07516831 -0.049845647 0.057218187 -0.057816993 0.04335531 -0.020346664
-0.099065 -0.07546061 0.08130983 0.078817554 0.084768035 -0.07503067 -0.0010243431 0.032393195
-0.020547472 0.029331066 0.09914421 0.089155875 0.07260517 0.0072414726 0.09261096 -0.08560313
-0.0116574615 -0.07903751 -0.061714698 0.08553887 0.08504634 -0.0924081 0.092006974 -0.095849834
-0.026764251 -0.09189081 -0.0024836883 0.07045723 -0.029412769 -0.0044014826 0.043869548 0.0025483817
-0.07153599 -0.053343546 -0.058073223 -0.09787204 -0.096282676 -0.0044821873 0.07022361 -0.02446495
-0.06629453 0.07501016 0.017712712 -0.0391273 -0.09494644 -0.09126655 -0.095208384 -0.0015126318
0.0027867183 0.043716364 -0.044292476 0.031188019 -0.07697143 -0.05276692 0.046135686 -0.014379837
0.07653328 0.066029675 -0.079580866 -0.09345716 0.04089112 0.06511577 0.029939003 0.017268583
-0.097564355 -0.043360736 0.010189675 0.024566747 0.14533621 -0.033084363 0.039519634 0.13980108
0.05543244 -0.0049189674 0.13201603 0.026736442 0.02257946 -0.0355489 0.08778547 0.005145241
0.08392627 0.036257405 -0.09077668 -0.026204182 0.10107636 0.05775091 0.09842484 0.06177675
-0.033776425 -0.060557485 0.0013327312 -0.10498443 0.013005389 0.04442306 0.06914045 0.15312022
0.29535836 0.030010376 -0.06714449 -0.011291457 0.0775792 -0.039806344 0.0042243637 0.08864556
0.11005503 -0.03790099 -0.25492144 0.21929501 0.116866365 -0.084540494 -0.012868781 -0.099918984
-0.026879227 -0.054090038 -0.0745822 0.026438065 0.08942006 -0.13727555 0.039689023 -0.022551997
0.11535393 -0.08894284 -0.0007892589 -0.19885907 0.14217041 0.17193712 -0.012447978 0.06797698
-0.0063033868 0.08447916 -0.14409819 -0.025606731 -0.039176036 0.027658056 0.07272527 0.05624334
0.13538091 -0.151428 0.0767339 -0.044729255 0.11221318 -0.050854474 -0.116280496 0.048937052
-0.14186102 -0.06061378 -0.01549732 -0.1326951 0.025096292 0.13570262 0.07042588 -0.07249606
-0.03471643 0.009409928 0.005790442 0.06756892 -0.09561174 -0.07110539 -0.016524035 0.0539718
0.18639962 0.02269841 -0.055387177 -0.084227555 0.036665015 0.0073044826 0.07236574 0.20489466
0.19498174 0.15725002 0.0022575646 -0.077808864 -0.039692685 0.04248002 0.09748599 -0.05702579
-0.060733467 0.048239656 0.11516127 0.038486123 -0.013181586 -0.117483914 -0.013101495 -0.015807817
0.097303994 0.0046428354 -0.09900257 0.028095441 -0.015094415 0.062944986 -0.1685421 -0.14178175
0.15329656 0.103901096 0.095723934 -0.11729857 0.14092575 0.073401585 0.14631662 -0.08592332
0.0881235 0.16707732 0.04349584 0.032780185 -0.123729795 0.11850922 -0.05723144 0.1999283
-0.016593507 0.026672509 -0.15539163 0.03752927 -0.04909025 0.032680646 0.070151426 -0.07649707
0.0024236254 -0.032827836 -0.070788376 0.1603088 -0.10715136 0.09690505 0.060530446 -0.09552573
00000000: 177b 2dbd c0e0 41bd 172c 34bd 00d6 a1bd
00000010: c1b6 bd3d 6aa7 1abd 78dc e4bc 52cb 543d
00000020: ebe6 aebd 6cf2 f3bc f411 a9bc f22e 333d
00000030: 5831 29bc bdde 82bd 5eab 0b3d 50ca b0bd
00000040: 5414 09bd 6e80 583d c05c 6ebb b5dc c9bd
00000050: 178a 3abd 463c 703d dd4a bfbd 474f 1abd
00000060: 20c0 d5bc b8a1 c3bd d8f1 99bd f32a 4cbd
00000070: 9e5d 6a3d 83d1 6cbd 5695 313d 0cae a6bc
00000080: 97e2 cabd 188b 9abd c585 a63d 196b a13d
00000090: dd9a ad3d aea9 99bd 4043 86ba baae 043d
000000a0: 2c53 a8bc b447 f03c 1f0c cb3d 5b97 b63d
000000b0: 05b2 943d e049 ed3b d1aa bd3d b250 afbd
000000c0: f0fe 3ebc 6bde a1bd 8dc8 7cbd 012f af3d
000000d0: c72c ae3d 7540 bdbd 276e bc3d eb4c c4bd
000000e0: b440 dbbc 4031 bcbd 60c5 22bb e14b 903d
000000f0: 0cf3 f0bc 503a 90bb 8eb0 333d c002 273b
00000100: 7681 92bd c37e 5abd 30de 6dbd 2371 c8bd
00000110: da2f c5bd 50df 92bb 65d1 8f3d b86a c8bc
00000120: 6dc5 87bd ed9e 993d 401a 913c f343 20bd
00000130: 4773 c2bd f5e9 babd 9dfc c2bd 8043 c6ba
00000140: 60a1 363b ee0f 333d 076c 35bd 047e ff3c
00000150: 32a3 9dbd 2022 58bd c6f8 3c3d 6899 6bbc
00000160: 7bbd 9c3d 913a 873d 4bfb a2bd 7866 bfbd
00000170: 727d 273d 6b5b 853d a442 f53c d876 8d3c
00000180: d2cf c7bd 079b 31bd 98f2 263c 3440 c93c
00000190: 04d3 143e 7883 07bd 57df 213d 0428 0f3e
000001a0: 200d 633d 4a2f a1bb 362f 073e 6206 db3c
000001b0: 8ff8 b83c b99b 11bd dec8 b33d 6999 a83b
000001c0: 89e1 ab3d a582 143d 20e9 b9bd 27aa d6bc
000001d0: 1f01 cf3d 388c 6c3d f692 c93d 9e09 7d3d
000001e0: 2659 0abd 200b 78bd 0aaf ae3a 1402 d7bd
000001f0: 8e14 553c f4f4 353d 8299 8d3d 8ccb 1c3e
00000200: 3639 973e 52d8 f53c 0d83 89bd ceff 38bc
00000210: d8e1 9e3d fa0b 23bd 886c 8a3b ce8b b53d
00000220: 8864 e13d 123e 1bbd 1085 82be df8e 603e
00000230: a257 ef3d 9123 adbd 94d7 52bc 53a2 ccbd
00000240: d331 dcbc 848d 5dbd 8dbe 98bd a494 d83c
00000250: dd21 b73d f691 0cbe f590 223d f7be b8bc
00000260: ae3e ec3d aa27 b6bd 45e6 4eba b6a1 4bbe
00000270: 1f95 113e 4910 303e 9bf2 4bbc 8437 8b3d
00000280: a48c cebb 6903 ad3d 7a8e 13be 35c5 d1bc
00000290: 0d77 20bd 2693 e23c fdf0 943d 6b5f 663d
000002a0: 4ba1 0a3e f10f 1bbe aa26 9d3d 0636 37bd
000002b0: 06d0 e53d c84c 50bd 7824 eebd 3872 483d
000002c0: 0444 11be 2846 78bd 79e8 7dbc 39e1 07be
000002d0: bd96 cd3c a1f5 0a3e 723b 903d d078 94bd
000002e0: d132 0ebd 192c 1a3c c0bd bd3b 9361 8a3d
000002f0: 17d0 c3bd b49f 91bd 6a5d 87bc 8911 5d3d
00000300: 8bdf 3e3e 04f2 b93c aadd 62bd 7f7f acbd
00000310: 0e2e 163d 715a ef3b 7d34 943d e8cf 513e
00000320: 4ba9 473e 2606 213e a6f3 133b 415a 9fbd
00000330: cc94 22bd 88ff 2d3d bca6 c73d e093 69bd
00000340: a8c3 78bd f296 453d acd9 eb3d a0a3 1d3d
00000350: 94f7 57bc 689b f0bd a7a7 56bc 657f 81bc
00000360: 5147 c73d ed22 983b dcc1 cabd 6928 e63c
00000370: 914e 77bc 4de9 803d 4d96 2cbe 3c2f 11be
00000380: c6f9 1c3e 19ca d43d e90a c43d 3c3a f0bd
00000390: d74e 103e 9253 963d 06d4 153e 91f8 afbd
000003a0: 187a b43d 5116 2b3e b228 323d 8444 063d
000003b0: 0c66 fdbd f6b4 f23d 846b 6abd 01ba 4c3e
000003c0: 1bef 87bc 4e80 da3c fc1e 1fbe 4bb8 193d
000003d0: dc12 49bd 24dc 053d 8dab 8f3d 7faa 9cbd
000003e0: b0d5 1e3b 7b76 06bd 7ff9 90bd fd27 243e
000003f0: 2c72 dbbd 2876 c63d c6ee 773d fea2 c3bd

bias f4 [50]
-0.08371793 0.051229402 0.00046064952 0.084965184 -0.08363412 0.22998367 0.18599743 -0.08825376
0.27055246 0.34266984 0.05831255 0.3137461 -0.25756148 0.017447941 -0.062329534 -0.080892965
0.014043998 -0.01004379 0.019784905 -0.048698835 0.13369425 -0.004223408 -0.03084799 0.32228127
0.04910503 -0.02326409 0.14212672 -0.054402906 0.106506385 0.15931791 -0.090425506 -0.027477887
0.007021693 0.011200108 0.060411047 -0.10991346 -0.10048382 -0.086389035 -0.030621385 -0.11376243
0.04385278 -0.05040462 -0.09675113 -0.053688798 -0.05798998 0.03694022 -0.08860346 -0.00654932
-0.09368232 -0.02057658
00000000: 4e74 abbd ecd5 513d 5583 f139 3a02 ae3d
00000010: 5e48 abbd d780 6b3e 1c76 3e3e 63be b4bd
00000020: da85 8a3e 6c72 af3e 24d9 6e3d 54a3 a03e
00000030: 19df 83be fcee 8e3c 414d 7fbd 36ab a5bd
00000040: cc18 663c b58e 24bc f413 a23c 6e78 47bd
00000050: 25e7 083e 8464 8abb edb4 fcbc 0d02 a53e
00000060: 5b22 493d 5594 bebc ab89 113e 95d5 5ebd
00000070: 0520 da3d 3c24 233e 0231 b9bd 4e19 e1bc
00000080: 3b16 e63b a880 373c 9371 773d 4f1a e1bd
00000090: 76ca cdbd bcec b0bd b3d9 fabc 47fc e8bd
000000a0: f99e 333d 1375 4ebd 7525 c6bd c9e8 5bbd
000000b0: e786 6dbd a14e 173d bb75 b5bd ae9b d6bb
000000c0: 84dc bfbd 3790 a8bc

weight f4 [10, 50]
0.040133193 0.34466168 0.1858025 0.1682587 -0.1524771 -0.063101836 -0.2528146 -0.058291756
-0.2998524 -0.054540772 -0.17319244 0.017268797 -0.20107237 0.08486897 0.03670936 -0.073125765
0.03892451 -0.13609925 0.50376904 0.015704876 0.11404573 0.1825087 -0.022424156 -0.053902708
-0.22546837 0.05104719 0.34036186 0.01938578 -0.105836265 0.023518417 -0.31526098 -0.25153622
0.060871538 -0.13996658 0.23907076 -0.20534237 -0.11474435 -0.08808417 0.13631922 0.16723435
-0.42560259 -0.048956208 -0.07222465 -0.07425914 0.046014596 0.09388575 -0.009095937 0.24133733
-0.02033994 0.012610702 0.008506149 -0.37576982 -0.3838637 0.08739177 0.067390025 -0.04824522
0.023825623 0.114940956 -0.25997502 -0.01283685 0.26703608 -0.24147831 0.06778097 0.008033359
-0.09514095 -0.00800293 0.119320765 -0.047066458 -0.14217933 0.0131283635 0.22236258 0.52965534
0.22932684 -0.35979673 0.6022169 0.11640537 0.08461106 -0.019668447 0.06370253 0.13863967
-0.4517362 -0.14535788 0.10040306 -0.06939452 0.16070478 0.18064168 -0.02671457 0.10481848
-0.046626166 0.17450891 -0.23105858 -0.03894873 0.008716927 -0.016300894 -0.1239884 -0.014499404
-0.12964559 -0.09371738 -0.030894943 -0.07279393 -0.11500178 -0.12769143 0.21521562 -0.15165357
0.022324333 0.2545318 -0.03773842 -0.14407659 -0.39227882 0.058635868 -0.2817953 0.04999377
-0.22381248 -0.10831286 0.22288561 -0.1362955 -0.09364733 0.055333424 0.009238327 0.078655645
-0.14480165 0.4374046 -0.41629174 -0.3493913 -0.013992037 0.18427144 0.16059932 0.13008896
0.30564058 0.14665478 -0.08539167 0.039656032 0.08029816 -0.12961935 -0.26958728 0.150314
-0.122471094 0.11424457 0.3327841 0.10800679 0.12412852 0.102654055 -0.069103986 0.1075555
0.11148049 0.12365828 -0.07913068 -0.48552722 -0.09789268 -0.010526199 0.032477334 0.19507559
0.24680021 -0.032356337 -0.27897638 -0.15154079 -0.21168026 -0.007816183 0.23934427 -0.08927714
-0.00435844 0.37096143 -0.13021599 0.013646206 0.04900579 -0.066306114 -0.043290753 -0.097518474
-0.06031598 0.09819754 0.38972458 0.17270713 0.04119439 0.101627596 0.26126552 0.04965072
-0.26187477 0.12386038 -0.36798105 0.38944453 0.042083394 0.1284486 0.1520536 0.0014818663
0.28421268 0.010198092 -0.13934731 0.11667761 -0.021997577 -0.2298346 0.052316822 0.100401305
0.08894207 0.1367968 0.04281468 -0.033219665 -0.059398383 -0.35626656 -0.10801436 -0.06458124
0.020077676 -0.32275403 0.13849096 0.2710771 0.13218245 -0.1318645 -0.04058481 0.12198071
0.19292203 -0.2960128 0.28745642 -0.0073872656 0.332708 -0.05251622 -0.20754333 0.03134407
-0.10835728 -0.07780415 -0.2819157 -0.055021305 -0.0013600708 0.3515221 -0.22060375 -3.343241e-05
0.21870455 -0.01297176 0.01762762 -0.115662836 0.011919482 -0.22938469 0.395897 0.048725475
-0.034335133 0.09573366 -0.22731635 0.009351028 0.043828446 0.004637765 0.13875628 0.26576567
-0.12527728 -0.051009458 -0.108500265 -0.04360197 -0.040128205 -0.12367426 -0.1094242 -0.43430343
0.27591103 -0.19519536 -0.017159082 -0.24587534 -0.026903382 0.20185001 -0.20637482 0.42917243
00000000: b462 243d 7f77 b03e 0343 3e3e 024c 2c3e
00000010: f522 1cbe 893b 81bd ea70 81be 56c3 6ebd
00000020: 4186 99be 2566 5fbd 5c59 31be 4b77 8d3c
00000030: eae5 4dbe c8cf ad3d 8e5c 163d f6c2 95bd
00000040: 4f6f 1f3d 9a5d 0bbe 02f7 003f 83a7 803c
00000050: cf90 e93d 90e3 3a3e ddb2 b7bc 16c9 5cbd
00000060: 2ee1 66be dc16 513d e943 ae3e edce 9e3c
00000070: afc0 d8bd b2a9 c03c e369 a1be 5bc9 80be
00000080: 6f54 793d 6653 0fbe f7ce 743e 4545 52be
00000090: 16ff eabd 7965 b4bd 4497 0b3e 7b3f 2b3e
000000a0: 95e8 d9be 4e86 48bd 84ea 93bd 2d15 98bd
000000b0: cd79 3c3d 2c47 c03d 2007 15bc 2221 773e
000000c0: f29f a6bc 1e9d 4e3c 605d 0b3c e764 c0be
000000d0: c889 c4be 75fa b23d c803 8a3d c89c 45bd
000000e0: f42d c33c 2a66 eb3d 721b 85be a751 52bc
000000f0: f4b8 883e 1746 77be c0d0 8a3d 5a9e 033c
00000100: 42d9 c2bd b91e 03bc 725e f43d c2c8 40bd
00000110: 7597 11be 5918 573c 04b3 633e 7e97 073f
00000120: a8d4 6a3e 4737 b8be e32a 1a3f f065 ee3d
00000130: 9048 ad3d b91f a1bc 7976 823d 8ff7 0d3e
00000140: f849 e7be b2d8 14be 1fa0 cd3d b71e 8ebd
00000150: cb8f 243e 22fa 383e 84d8 dabc 12ab d63d
00000160: 14fb 3ebd 77b2 323e 9f9a 6cbe b488 1fbd
00000170: 71d1 0e3c 7489 85bc a1ed fdbd e88e 6dbc
00000180: d0c1 04be e6ee bfbd 6417 fdbc fc14 95bd
00000190: 0e86 ebbd 8bc1 02be 7c61 5c3e 134b 1bbe
000001a0: 85e1 b63c fe51 823e 9a93 1abd d088 13be
000001b0: c5d8 c8be 2a2c 703d 7947 90be 44c6 4c3d
000001c0: 192f 65be 22d3 ddbd 203c 643e 0c91 0bbe
000001d0: 2cca bfbd 4da5 623d 5a5c 173c 3616 a13d
000001e0: e246 14be 7ff3 df3e 3124 d5be 6be3 b2be
000001f0: db3e 65bc a7b1 3c3e 2674 243e 0a36 053e
00000200: ec7c 9c3e ac2c 163e d4e1 aebd 5d6e 223d
00000210: 5d73 a43d efba 04be 5807 8abe eaeb 193e
00000220: 20d2 fabd 0ff9 e93d ad62 aa3e aa32 dd3d
00000230: 1837 fe3d 4a3c d23d 6486 8dbd 0f46 dc3d
00000240: e24f e43d 8d40 fd3d 440f a2bd 0697 f8be
00000250: f57b c8bd 1476 2cbc f406 053d e5c1 473e
00000260: 32b9 7c3e 1488 04bd fed5 8ebe 822d 1bbe
00000270: b6c2 58be 730f 00bc aa16 753e efd6 b6bd
00000280: 3fd1 8ebb a8ee bd3e 5757 05be 5694 5f3c
00000290: 4cba 483d 80cb 87bd a551 31bd c4b7 c7bd
000002a0: e40d 77bd cb1b c93d fb89 c73e 23da 303e
000002b0: 73bb 283d 2122 d03d 98c4 853e 8e5e 4b3d
000002c0: 7314 86be 83aa fd3d 0368 bcbe 4665 c73e
000002d0: a35f 2c3d 0888 033e f0b3 1b3e 2f3b c23a
000002e0: 5384 913e e615 273c 10b1 0ebe acf4 ee3d
000002f0: 4334 b4bc c359 6bbe 2a4a 563d 339f cd3d
00000300: 4327 b63d 7614 0c3e 725e 2f3d 5811 08bd
00000310: b84b 73bd 9268 b6be a236 ddbd 2b43 84bd
00000320: f079 a43c 0440 a5be 93d0 0d3e 9eca 8a3e
00000330: d65a 073e 7d07 07be 423c 26bd 06d1 f93d
00000340: 5a8d 453e fd8e 97be 7d2d 933e e010 f2bb
00000350: b458 aa3e 3f1b 57bd 3d86 54be a462 003d
00000360: 6cea ddbd c857 9fbd 4157 90be 055e 61bd
00000370: 6744 b2ba b4fa b33e f3e5 61be c739 0cb8
00000380: 16f4 5f3e 8187 54bc cc67 903c a3e0 ecbd
00000390: ee49 433c d2e3 6abe 03b3 ca3e 5d94 473d
000003a0: ffa2 0cbd 0210 c43d 9ec5 68be 0e35 193c
000003b0: 7585 333d 65f8 973b 2016 0e3e 7012 883e
000003c0: b048 00be 4bef 50bd 6335 debd fb97 32bd
000003d0: 795d 24bd ee48 fdbd cc19 e0bd 055d debe
000003e0: 3644 8d3e 4be1 47be 3491 8cbc bfc6 7bbe
000003f0: 7b64 dcbc c5b1 4e3e ec53 53be 7dbc db3e

bias f4 [10]
0.14515883 -0.018861825 0.03190528 0.0740781 -0.33306882 0.7987374 0.25696105 -0.0075247223
-0.34033456 -0.48681122
00000000: 84a4 143e 1d84 9abc 1caf 023d 42b6 973d
00000010: ff87 aabe 0e7a 4c3f 6690 833e f291 f6bb
00000020: 5540 aebe 523f f9be
